CNNmodel.pt (torch, 204872 bytes, 6 tensors)

weight f4 [32, 1, 3, 3]
0	0xbf086c58	-0.5329032
1	0xbe2be74c	-0.16787452
2	0xbe718629	-0.23586334
3	0xbdf0fa40	-0.117664814
4	0x3e662870	0.22476363
5	0x3ecc9434	0.3995682
6	0x3d930d33	0.07180252
7	0xbde00d63	-0.10940053
8	0xbd26e5ca	-0.040746488
9	0xbf08f74d	-0.5350235
10	0xbed449d1	-0.41462567
11	0x3d1eed37	0.038800444
12	0xbf1cbd2a	-0.6122614
13	0x3ebabef6	0.36473817
14	0x3e926e97	0.28599998
15	0x3f10552a	0.5637995
16	0x3ee7d166	0.45276946
17	0xbec4fec0	-0.3847561
18	0x3e805501	0.25064853
19	0x3e713873	0.2355669
20	0xbc24e433	-0.010064173
21	0xbe898354	-0.26858008
22	0xbd6ae40c	-0.05734639
23	0xbe8408ac	-0.25787866
24	0x3da87f0d	0.08227358
25	0x3e86382c	0.2621473
26	0x3e913ca4	0.28366578
27	0xbeae8dde	-0.3409261
28	0xbf4e11c5	-0.80495864
29	0xbeca23fe	-0.39480585
30	0xbded47f0	-0.115859866
31	0x3d1a12fb	0.037615757
32	0xbd9378f5	-0.07200805
33	0x3f0d8058	0.5527396
34	0x3d927f48	0.07153183
35	0x3eb12710	0.34600115
36	0x3edc42f3	0.43019828
37	0x3e3dc839	0.1853341
38	0xbe9b65b8	-0.30351043
39	0x3e95ad85	0.29233947
40	0xbdc8be26	-0.09801893
41	0xbec2a8e6	-0.38019484
42	0x3edb3d7b	0.42820343
43	0x3ef25565	0.47330776
44	0xbeb793cc	-0.35854948
45	0xbf7c7f45	-0.986317
46	0xbecd57ae	-0.40105957
47	0xbe38a85b	-0.18032973
48	0xbef19bcd	-0.4718918
49	0xbe00952e	-0.12556908
50	0x3ede6752	0.43438202
51	0xbe7a8810	-0.24465966
52	0x3de2ca4d	0.11073742
53	0x3f0a4385	0.54009277
54	0xbdff76b8	-0.12473816
55	0x3d6c6335	0.0577118
56	0xbf1ae208	-0.60501146
57	0x3e005fe0	0.12536573
58	0x3f241656	0.6409658
59	0x3e3f2e0a	0.18669906
60	0xbdd4bf76	-0.10388081
61	0xbf08eda7	-0.5348763
62	0xbe274a1c	-0.16336864
63	0xbe892214	-0.26783812
64	0x3e94a0ef	0.29029033
65	0x3f22e4b7	0.6363024
66	0xbd328574	-0.043584302
67	0xbeac3b86	-0.33639163
68	0xbd30289b	-0.043007474
69	0xbe1fa40a	-0.1558992
70	0xbf119449	-0.5686689
71	0xbefe4bec	-0.496673
72	0xbdfda94e	-0.12385808
73	0xbf7ba0d0	-0.98292255
74	0xbf1d93a3	-0.615534
75	0x3f8b083d	1.0861889
76	0xbc871311	-0.016488584
77	0xbe832370	-0.25612974
78	0x3ed7d7a7	0.42156717
79	0x3e5f4b88	0.21806157
80	0x3e8230a0	0.25427723
81	0xbebe3334	-0.3714844
82	0x3d987164	0.074435025
83	0x3e4ab074	0.19793874
84	0x3e3a8f19	0.1821865
85	0xbe9538a3	-0.29144773
86	0x3d8ac885	0.06776527
87	0x3e903426	0.28164786
88	0x3e5af9ae	0.21384308
89	0x3e31f437	0.17378317
90	0xbefd9249	-0.4952567
91	0xbf0bead5	-0.546552
92	0x3e181ee9	0.14855541
93	0x3e964620	0.29350376
94	0x3ebda741	0.37041667
95	0x3e68004f	0.22656368
96	0x3d810580	0.06299877
97	0x3b6ade79	0.003583817
98	0xbe6363db	-0.2220606
99	0x3e91e416	0.28494328
100	0x3d68f1f5	0.056871373
101	0xbf0d2aac	-0.5514324
102	0x3e174252	0.14771393
103	0xbe19763f	-0.14986514
104	0xbea16723	-0.31524
105	0x3d2e60e9	0.04257289
106	0xbf183115	-0.59449893
107	0xbf3cae96	-0.73703897
108	0xbe9686a3	-0.29399595
109	0x3ed77c82	0.4208718
110	0x3f0f93bf	0.5608482
111	0xbf183493	-0.5945522
112	0xbe4b1f47	-0.1983615
113	0x3eae2ba5	0.34017673
114	0xbf3e07c6	-0.7423061
115	0xbf693066	-0.91089475
116	0xbeb6b950	-0.35688257
117	0x3e4033ef	0.18769811
118	0x3e8b9273	0.2726017
119	0xbf247301	-0.6423798
120	0xbeabf606	-0.33586138
121	0x3ebdb5f9	0.37052897
122	0x3ee77ad9	0.45210913
123	0xbd7283b1	-0.059207622
124	0x3e26c4a8	0.16285956
125	0xbdbfc1eb	-0.09363159
126	0xbd71d20d	-0.05903821
127	0x3f060e58	0.52365637
128	0x3ed0c0b7	0.4077203
129	0x3e4acea1	0.19805385
130	0x3c7aa2e5	0.015297626
131	0x3eaed052	0.3414331
132	0xbf5cf47e	-0.86310565
133	0xbf4951db	-0.78640527
134	0x3d877b82	0.06615354
135	0x3e995d66	0.2995407
136	0xbef14927	-0.47126123
137	0x3e2713ad	0.163161
138	0x3ecef90f	0.40424392
139	0xbf0646bf	-0.524517
140	0x3e876080	0.2644081
141	0x3d5683e0	0.05237186
142	0xbeaf2bfd	-0.34213248
143	0x3e93c49a	0.28860933
144	0xbec9c5e0	-0.3940878
145	0xbe80bbe7	-0.25143358
146	0x3eb41dad	0.3517889
147	0xbf133741	-0.57506186
148	0xbd945dc5	-0.072444476
149	0x3ec9b1ae	0.3939337
150	0xbf06b6c1	-0.5262261
151	0x3d27c98a	0.040963687
152	0x3f2ac464	0.6670592
153	0xbec4d45b	-0.38443264
154	0xbe39fb4e	-0.18162271
155	0x3eae114e	0.33997577
156	0xbf05f79a	-0.52330935
157	0xbe2983b4	-0.16554147
158	0x3ea93b0d	0.33052865
159	0xbe06f42f	-0.13179086
160	0x3e041fbb	0.12902729
161	0x3f246f44	0.6423228
162	0x3e389f01	0.18029405
163	0xbef94d96	-0.48692006
164	0xbe4e19a0	-0.20126963
165	0x3f0f16b5	0.55894023
166	0xbe69401e	-0.22778365
167	0xbf404e06	-0.75119054
168	0x3ec8ec58	0.39242816
169	0x3e1c0eb1	0.1523998
170	0x3ec5f008	0.38659692
171	0x3ccb450c	0.024813198
172	0xbe529031	-0.20562817
173	0x3e6e0c33	0.23246841
174	0x3e88d2fa	0.26723462
175	0x3eb1da66	0.34736937
176	0x3e1b6d6b	0.15178458
177	0x3dea50b3	0.114411734
178	0xbcf84560	-0.030306518
179	0xbea69620	-0.3253641
180	0x3db1e7b0	0.08686769
181	0xbf556bb0	-0.83367443
182	0xbef7b56a	-0.48380595
183	0xbebb9d9d	-0.36643687
184	0x3e8be973	0.27326545
185	0x3ec1cd71	0.37852052
186	0xbd3a84c3	-0.045536768
187	0x3e88af14	0.26696074
188	0x3e80e08b	0.25171313
189	0x3e7bbdf0	0.24584174
190	0xbf116321	-0.56791884
191	0xbf08f187	-0.5349354
192	0x3e85bd22	0.2612086
193	0x3f2f1864	0.6839659
194	0x3ed54f75	0.41662183
195	0xbe80aeae	-0.2513327
196	0xbeaa2994	-0.33234847
197	0x3d9187b5	0.07105962
198	0xbf2986ee	-0.6622151
199	0x3e79ba49	0.24387468
200	0x3e1e12f1	0.15436913
201	0x3e868d3e	0.26279634
202	0x3eac53ee	0.33657783
203	0xbe174a4a	-0.14774433
204	0x3effdf3c	0.49975002
205	0x3d484ae3	0.048899543
206	0xbf6c4726	-0.92296064
207	0xbf0f428e	-0.5596093
208	0x3f104ba1	0.563654
209	0xbe8d1e2a	-0.27562076
210	0xbea26d4f	-0.3172402
211	0x3f4eaf20	0.8073597
212	0xbec44b1c	-0.38338554
213	0xbcaa8c2d	-0.020818794
214	0xbda2980e	-0.079391584
215	0xbe1e7610	-0.15474725
216	0x3f2a7b65	0.66594535
217	0xbe89fb84	-0.26949704
218	0xbef1cdd5	-0.4722735
219	0x3ec46ac7	0.38362715
220	0xbf31a406	-0.69390905
221	0xbdac6469	-0.08417589
222	0xbf049167	-0.51784366
223	0xbf0efa37	-0.5585055
224	0xbea50de7	-0.3223717
225	0x3ef27abb	0.4735926
226	0x3ef974f7	0.4872205
227	0x3ed8ab18	0.42318034
228	0xbd2e7b48	-0.04259804
229	0x3e28a2a5	0.16468294
230	0xbe9f96cd	-0.3116974
231	0xbefb7752	-0.49114472
232	0xbf3e76a5	-0.7439979
233	0xbef2b5f3	-0.4740444
234	0x3db720da	0.08941813
235	0x3f589d15	0.8461469
236	0x3f0ad3ef	0.54229635
237	0xbf4c7fed	-0.798827
238	0xbdf49aca	-0.11943586
239	0x3ea6aff4	0.32556117
240	0xbf299d44	-0.66255593
241	0xbec5047f	-0.38479993
242	0x3e306134	0.1722458
243	0xbe7e9960	-0.24863195
244	0x3c88caa2	0.016698185
245	0x3f14d341	0.5813485
246	0xbf17f06a	-0.5935122
247	0xbecdaa02	-0.40168768
248	0xbe108565	-0.14113386
249	0x3f2d0d9b	0.67598885
250	0xbe4d9017	-0.20074497
251	0xbeeef4ec	-0.46671236
252	0x3f14ae46	0.5807842
253	0x3f2aac21	0.666689
254	0x3ecdb1a1	0.40174583
255	0x3e0d5448	0.13801682

bias f4 [32]
0	0xbdc95f84	-0.09832671
1	0xbdee0875	-0.11622707
2	0xbed942b5	-0.42433706
3	0x3dd01eee	0.10162149
4	0xbeb45215	-0.35218874
5	0x3dd3d7c5	0.10343889
6	0xbb59e20a	-0.0033246302
7	0x3e3fac3f	0.1871805
8	0xbd80fc09	-0.06298072
9	0xbef1a911	-0.471993
10	0xbe3da68f	-0.18520568
11	0x3e19d80a	0.15023819
12	0x3e39f785	0.18160827
13	0xbe8eee90	-0.27916384
14	0xbe5d43f2	-0.2160795
15	0xbe42210a	-0.18957916
16	0xbda95ec1	-0.08270026
17	0xbe128654	-0.14309055
18	0xbe059838	-0.13046348
19	0xbea32691	-0.3186536
20	0x3c154585	0.009110813
21	0xbe8aebd0	-0.27133036
22	0xbe17fc54	-0.1484235
23	0xbb57e056	-0.003294011
24	0x3e347adc	0.17624992
25	0x3dfde70f	0.123975866
26	0xbd89c988	-0.06727892
27	0x3dcf005e	0.10107492
28	0xbd62716b	-0.055283945
29	0xbe60d0f9	-0.21954717
30	0xbd67bdc7	-0.05657747
31	0xbdc22c1f	-0.09481072

weight f4 [64, 32, 3, 3]
0	0xbece7bf4	-0.40328944
1	0xbdd8ff7e	-0.10595606
2	0xbb951358	-0.004549425
3	0xbd3cc3f6	-0.04608532
4	0xbe6c85ce	-0.23097917
5	0x3d01fb09	0.031733546
6	0x3e384b40	0.17997456
7	0x3cb6110e	0.02222493
8	0x3e320b5b	0.17387144
9	0xbea82745	-0.3284246
10	0xbdc63fee	-0.09680162
11	0xbd8d0440	-0.06885576
12	0xbddde359	-0.10834379
13	0xbd18e244	-0.03732516
14	0xbc224d96	-0.009906193
15	0x3e2f07b4	0.17092782
16	0x3d5ac42c	0.05340974
17	0x3d2ab23f	0.041673895
18	0xbdc9547e	-0.09830569
19	0xbe828704	-0.25493634
20	0x3e6c2c12	0.23063686
21	0x3d9890b4	0.07449475
22	0x3e2c8ad0	0.16849828
23	0x3e95e297	0.29274437
24	0xbd1ae1c9	-0.03781298
25	0xbd095868	-0.033531576
26	0x3e8c2eac	0.27379358
27	0xbdc4b5bd	-0.09604976
28	0xbed419f7	-0.4142606
29	0xbeca635e	-0.39528936
30	0x3da8dbdc	0.0824506
31	0x3c64569f	0.013936668
32	0xbe73defe	-0.23815534
33	0x3c58f70b	0.013242493
34	0x3cfe1dc7	0.031020058
35	0x3d0433fc	0.03227614
36	0xbe6ca7f2	-0.23110941
37	0x3d0b4273	0.033998918
38	0x3e675e7e	0.2259464
39	0xbc1d1e8f	-0.009589805
40	0x3c9f1a8e	0.019421842
41	0xbd9040c2	-0.070436016
42	0xbe126309	-0.14295591
43	0x3d80bf67	0.06286507
44	0xbea3a258	-0.31959796
45	0xbed8565d	-0.4225339
46	0x3d38bf91	0.045104567
47	0xbd440c88	-0.047863513
48	0xbe3bec41	-0.18351842
49	0xbe888b8b	-0.26668963
50	0xbd6e9527	-0.05824771
51	0xbc9a0387	-0.01880051
52	0xbe7d8834	-0.24758989
53	0x3d740955	0.059579212
54	0x3ce8dc0d	0.02842524
55	0x3e0032b5	0.12519343
56	0xbd68c6bb	-0.05683015
57	0xbe98c7bf	-0.29839894
58	0xbec91729	-0.39275482
59	0xbe0ca18b	-0.13733499
60	0x3de384cd	0.11109314
61	0xbd5c10ee	-0.053727083
62	0xbea9c8c2	-0.3316098
63	0x3d45c050	0.048279107
64	0x3d9e9cec	0.07744774
65	0xbeaedee4	-0.34154427
66	0xbe3eaebe	-0.18621346
67	0xbe160b1d	-0.14652677
68	0x3c090718	0.008363508
69	0xbdabc079	-0.083863206
70	0xbe54ef4c	-0.2079441
71	0xbda5d00d	-0.08096323
72	0xbd8c5ca8	-0.0685361
73	0xbe7ccfff	-0.24688719
74	0xbe2401bf	-0.16016291
75	0x3e832511	0.25614217
76	0x3e96a904	0.29425824
77	0xbd055761	-0.032554034
78	0x3d9f55bc	0.077800244
79	0x3e4e0bf9	0.20121755
80	0xbdeed7d2	-0.11662258
81	0xbe267747	-0.16256438
82	0xbe4567c8	-0.1927787
83	0xbdc00eea	-0.09377845
84	0x3bed5550	0.007242836
85	0x3dffdf9a	0.124938205
86	0x3b393efb	0.00282663
87	0xbcb835ef	-0.022486655
88	0xbd9d93ca	-0.07694204
89	0x3e5533f7	0.20820604
90	0xbe686457	-0.22694527
91	0x3ca45cf7	0.02006386
92	0x3deed120	0.11660981
93	0x3b64c9ff	0.0034910438
94	0x3ba5d7c7	0.005061123
95	0xbe2105b7	-0.15724836
96	0x3ca6b6d1	0.020350846
97	0xbb1e667d	-0.0024169974
98	0x3da2917c	0.07937905
99	0xbebb2979	-0.3655508
100	0xbd8fb1e8	-0.07016355
101	0xbf1161e7	-0.5679001
102	0xbef3e862	-0.47638232
103	0xbe9b579e	-0.30340284
104	0xbf19974f	-0.59996504
105	0xbe0c8528	-0.1372267
106	0x3c1a0933	0.009401607
107	0xbefc01cb	-0.49220118
108	0xbc22e9d0	-0.009943441
109	0x3d4da6cb	0.050207894
110	0xbbf4d79f	-0.007471993
111	0xbe7c79dd	-0.24655862
112	0xbe2f2ca3	-0.17106871
113	0x3db166fb	0.0866222
114	0x3d8c77db	0.06858798
115	0xbe9a63b2	-0.30154186
116	0x3c2bccd4	0.010485847
117	0xbe43132f	-0.19050287
118	0xbe7596bc	-0.23983282
119	0x3e95c03e	0.29248232
120	0x3e200093	0.15625219
121	0xbbd2488a	-0.0064173387
122	0x3ed311e7	0.41224596
123	0x3d970ee1	0.07375885
124	0xbdc3767d	-0.09544084
125	0x3df78712	0.120863095
126	0x3db2c56d	0.08729062
127	0x3e3d42c7	0.18482505
128	0x3e9fde03	0.3122407
129	0xbebe75a8	-0.3719914
130	0xbed25e2a	-0.41087466
131	0x3e9a0411	0.30081227
132	0x3e7119b0	0.23544955
133	0x3de2ddca	0.11077459
134	0x3e3832d4	0.1798814
135	0xbed21463	-0.4103118
136	0x3e34fa21	0.17673542
137	0xbe28b779	-0.1647624
138	0xbc4f9877	-0.012670628
139	0x3e190ca9	0.14946236
140	0xbd8b84a0	-0.068124056
141	0xbdeb9118	-0.11502284
142	0x3e56ca1f	0.2097554
143	0x3d49d929	0.049279366
144	0xbeeeabaf	-0.4661536
145	0x3e55009d	0.20801015
146	0x3e94e1e0	0.2907858
147	0xbe541ee5	-0.2071491
148	0xbe8ba48d	-0.2727398
149	0x3dc958e9	0.098314114
150	0xbe29a3a6	-0.16566333
151	0xbed7da05	-0.42158523
152	0x3da0543e	0.07828568
153	0xbf0c7f3c	-0.54881644
154	0x3e694a86	0.22782335
155	0x3e35684a	0.17715564
156	0xbdb4d800	-0.08830261
157	0xbe081842	-0.13290504
158	0x3e193373	0.14961033
159	0xbe1a121d	-0.15045972
160	0xbe734164	-0.23755413
161	0x3e1daf38	0.15398872
162	0xbe459d41	-0.19298269
163	0xbe78ddee	-0.2430341
164	0x3d07a356	0.033114754
165	0x3e197396	0.14985499
166	0x3eb22977	0.3479726
167	0x3df713ba	0.120643094
168	0xbe1c6837	-0.1527413
169	0x3dcca7c1	0.09992934
170	0xbe4ce360	-0.20008612
171	0xbe81d881	-0.25360492
172	0xbd285da3	-0.041104924
173	0x3d415402	0.047199257
174	0xbc987d00	-0.018614292
175	0xbec2abd5	-0.38021722
176	0xbdf5e749	-0.12007005
177	0x3e99265f	0.29912087
178	0x3e151261	0.14557792
179	0xbde3fd46	-0.111322924
180	0xbe55cc03	-0.20878606
181	0xbed5d092	-0.4176069
182	0xbdb5266d	-0.0884522
183	0x3dcd82ff	0.10034751
184	0xbe0f1acf	-0.1397507
185	0xbe893446	-0.26797694
186	0x3e56717c	0.20941728
187	0x3d018aad	0.031626392
188	0x3da7f7d9	0.0820157
189	0xbd495cb9	-0.049160693
190	0xbbdd3aa7	-0.0067513767
191	0x3e1983b9	0.14991654
192	0x3e4d118e	0.20026228
193	0x3d0a3d17	0.033749666
194	0x3dea6262	0.11444546
195	0x3e006350	0.12537885
196	0x3d106d38	0.03526041
197	0x3b65bc02	0.0035054688
198	0xbdd23547	-0.10264068
199	0xbe15047a	-0.14552489
200	0x3da5f864	0.081040174
201	0x3d6a9e95	0.05728014
202	0xbcb85465	-0.02250118
203	0xbee0091d	-0.43756953
204	0xbe41a22c	-0.1890952
205	0xba85142c	-0.0010153106
206	0xbed99e38	-0.42503524
207	0xbee011d0	-0.4376359
208	0x3e32188b	0.17392175
209	0x3da882a1	0.082280405
210	0xbea816eb	-0.32829985
211	0xbec5288f	-0.38507506
212	0x3e0d21f1	0.13782479
213	0xbea39420	-0.31948948
214	0xbebb5d53	-0.36594638
215	0xbece609a	-0.40308076
216	0xbf0b7f6b	-0.544913
217	0xbde41496	-0.11136739
218	0xbf286599	-0.65780026
219	0xbef3edf9	-0.47642496
220	0xbea49930	-0.32148123
221	0xbee33517	-0.44376442
222	0xbe8c2a9e	-0.27376264
223	0xba2a6502	-0.00065000367
224	0xbe9d7d3e	-0.30759615
225	0x3d44fef0	0.04809469
226	0x3d30e50f	0.043187197
227	0xbe431485	-0.19050796
228	0xbe9f62ac	-0.31129968
229	0xbec21905	-0.37909713
230	0xbed1a40f	-0.4094548
231	0x3df809e4	0.121112615
232	0x3d4c9915	0.049950678
233	0xbe8d2211	-0.27565053
234	0x3e8f42a6	0.27980536
235	0x3ea8e9ba	0.3299082
236	0x3efacd91	0.4898496
237	0xbebedf70	-0.37279844
238	0xbdd3558f	-0.103190534
239	0x3edbacde	0.42905325
240	0x3e5ba780	0.21450615
241	0xbe85900e	-0.26086468
242	0x3e3d6818	0.1849674
243	0x3e0577aa	0.1303393
244	0x3ccb3fb3	0.024810648
245	0xbf19d86c	-0.6009586
246	0x3d3379b6	0.043817244
247	0xbd47b879	-0.04875991
248	0xbb5028c4	-0.003176258
249	0xbebb9593	-0.36637554
250	0xbe9dfa6a	-0.30855113
251	0xbe2092b6	-0.15680966
252	0x3d97d076	0.07412808
253	0x3e6814ec	0.22664231
254	0xbd23a882	-0.039955623
255	0xbebc8f8f	-0.36828277

bias f4 [64]
0	0xbe5d00de	-0.21582362
1	0xbd94656e	-0.07245909
2	0xbded9d68	-0.116022885
3	0xbe8ea3d6	-0.27859372
4	0xbd91e663	-0.07124021
5	0xbe145d97	-0.14488827
6	0xbdefe9af	-0.117144935
7	0xbdc1894c	-0.094500154
8	0xbdf5c1d1	-0.11999858
9	0xbe9ecd28	-0.31015897
10	0xbe039068	-0.12848055
11	0xbe385f8d	-0.180052
12	0x3da694fb	0.081338845
13	0xbe2033bd	-0.15644737
14	0xbde85be8	-0.11345655
15	0xbe1730a8	-0.14764655
16	0xbe6440b4	-0.22290307
17	0xbe323d41	-0.17406179
18	0xbe511448	-0.20417893
19	0xbd835558	-0.064127624
20	0xbe64242d	-0.22279425
21	0xbe7e8753	-0.2485631
22	0xbe243236	-0.16034779
23	0xbe1a8e0a	-0.15093246
24	0xbdf521b9	-0.11969323
25	0x3cc07751	0.023494394
26	0xbd21df23	-0.03951944
27	0x3c7746c4	0.015092555
28	0xbdbf3558	-0.093363464
29	0xbdc1d382	-0.0946417
30	0xbdba279d	-0.09089587
31	0xbe2daee9	-0.16961254
32	0xbde008f0	-0.10939205
33	0xbea5d7e6	-0.3239128
34	0xbe0467aa	-0.1293017
35	0xbd7a8e35	-0.061170775
36	0xbe8d6d38	-0.2762239
37	0xbe4f894e	-0.20267221
38	0xbe7baa4d	-0.24576683
39	0xbdb573ab	-0.088599525
40	0xbdd04fda	-0.101714805
41	0xbe403b74	-0.1877268
42	0xbd7f3750	-0.06230861
43	0xbe08b65c	-0.13350815
44	0xbe706766	-0.23476943
45	0x3c8b278d	0.016986633
46	0xbe0ba88d	-0.13638516
47	0xbe2907cd	-0.16506882
48	0xbe6dbeab	-0.23217265
49	0x3c037265	0.008022879
50	0xbdf7c299	-0.120976634
51	0xbd9093d8	-0.07059449
52	0xbd5cb49c	-0.05388318
53	0xbe777fa3	-0.24169783
54	0xbd1fb5c3	-0.0389917
55	0xbe6cc450	-0.23121762
56	0xbdbf515d	-0.09341691
57	0xbe000bfd	-0.12504573
58	0xbcf758ce	-0.030193713
59	0xbdce606d	-0.100769855
60	0xbe071efc	-0.13195413
61	0xbe82de35	-0.25560156
62	0xbdd2a537	-0.102854185
63	0xbe2c92ca	-0.1685287

weight f4 [10, 3136]
0	0xbe28e436	-0.16493306
1	0xbd9360f3	-0.07196226
2	0x3d36afab	0.044601124
3	0x3e0aefe2	0.1356807
4	0xbdd4e0e2	-0.103944555
5	0xbbb416ff	-0.0054959054
6	0xbeb95314	-0.36196196
7	0x3dbea3a7	0.09308558
8	0xbd94df53	-0.07269158
9	0xbe7a72e1	-0.24457885
10	0xbd20f4db	-0.039296012
11	0x3d929f55	0.071592964
12	0x3e49958f	0.19685958
13	0x3cf69950	0.030102402
14	0x3dc42471	0.09577263
15	0x3e929782	0.28631216
16	0xbe5cb761	-0.21554329
17	0xbeccff3d	-0.4003848
18	0x3df006af	0.11720025
19	0x3e05dc2e	0.13072273
20	0x3cbb88ce	0.022892382
21	0x3e71cc3f	0.2361307
22	0xbc0a4752	-0.008439856
23	0xbe2d236e	-0.16908047
24	0x3d1f63f5	0.038913686
25	0xbc93f701	-0.018062117
26	0x3eddb921	0.43305305
27	0xbe8b6463	-0.27225026
28	0x3dcda01a	0.100403026
29	0x3d1774c5	0.036976594
30	0xbc3adac0	-0.011404693
31	0xbe3c3305	-0.18378837
32	0x3c94d17e	0.0181663
33	0x3e3c0ee3	0.18365054
34	0xbe9022e0	-0.28151608
35	0x3d0fafb4	0.035079673
36	0x3c21132b	0.00983123
37	0x3e30b6ca	0.17257228
38	0xbe8d8254	-0.27638495
39	0xbdddc560	-0.10828662
40	0xbe628d24	-0.22124153
41	0x3d9f77c5	0.07786516
42	0xbdc7b0d3	-0.097505234
43	0x3d4b356d	0.049611498
44	0x3e973289	0.29530743
45	0xbeb2e28b	-0.34938464
46	0xbe391cdb	-0.18077414
47	0xbcef615f	-0.029221235
48	0xbce663d8	-0.028123781
49	0xbdfc57fe	-0.12321471
50	0xbd21763b	-0.039419394
51	0x3d66e144	0.056367174
52	0x3d03f54e	0.032216363
53	0xbe3057e6	-0.1722103
54	0xbde17c8f	-0.11010086
55	0x3dd87b0c	0.10570344
56	0x3e0c22d4	0.13685161
57	0xbe3ad304	-0.18244559
58	0xbe809c20	-0.25119114
59	0xbdcfea6f	-0.101521365
60	0xbe852f95	-0.26012865
61	0xbe547e4a	-0.207513
62	0x3e20063d	0.1562738
63	0x3da13234	0.078709036
64	0xbcf49669	-0.029856877
65	0x3e103b07	0.14085017
66	0x3d097f80	0.03356886
67	0xbe26d12a	-0.16290727
68	0xbe4cfe0c	-0.20018786
69	0x3e15ed12	0.14641216
70	0xbdb79ba7	-0.08965235
71	0x3da83d3f	0.08214807
72	0x3d226bdd	0.039653648
73	0x3e049a9e	0.12949607
74	0x3e9af0bc	0.3026179
75	0xbd1c585b	-0.0381702
76	0x3e047ca1	0.12938167
77	0xbdb404d6	-0.08789985
78	0xbdfe5fbd	-0.124206044
79	0x3cf3ee9f	0.02977687
80	0x3e9effc3	0.31054506
81	0x3d478475	0.048710305
82	0xbcf24679	-0.02957462
83	0x3d62e4fe	0.055394165
84	0xbe14fca8	-0.14549506
85	0xbea4f1c9	-0.32215717
86	0xbe1d78f2	-0.15378168
87	0xbe81849f	-0.25296494
88	0x3d28a036	0.041168414
89	0x3cc9f989	0.02465512
90	0xbda2c700	-0.079481125
91	0xbe5d7eaf	-0.21630357
92	0xbad77541	-0.0016438143
93	0xbe8dd734	-0.2770325
94	0xbf23c0e1	-0.63966185
95	0xbe18b7d8	-0.14913881
96	0xbec2505f	-0.37951943
97	0x3da1d544	0.07902005
98	0xbd582da9	-0.05277792
99	0x3b1a4e04	0.0023545036
100	0x3d232097	0.039826002
101	0xbc81ac50	-0.015829235
102	0xbe6d3eb5	-0.23168452
103	0xbe5a4cd9	-0.21318378
104	0xbe225446	-0.1585246
105	0xbd118aa1	-0.035532597
106	0xbe4cc774	-0.1999796
107	0xbe961f92	-0.2932096
108	0x3e17d65e	0.14827868
109	0xbe92dea8	-0.28685498
110	0xbc8bfb96	-0.017087739
111	0x3e7919f4	0.24326307
112	0xbeb3f4f9	-0.35147837
113	0xbe82f3d7	-0.2557666
114	0x3e8567dd	0.26055804
115	0x3e4c11b2	0.19928625
116	0xbdb0de99	-0.08636207
117	0x3e4f7ab6	0.20261654
118	0x3e6c9503	0.23103718
119	0xbe0d509a	-0.13800278
120	0x3d8cd199	0.06875915
121	0x3e47764a	0.19478717
122	0x3d99f6cc	0.07517776
123	0xbe149c7a	-0.14512816
124	0x3df4937a	0.119421914
125	0xbd82981a	-0.06376667
126	0xbb15fbdc	-0.0022885716
127	0xbde1cf81	-0.11025906
128	0x3e4e8064	0.20166165
129	0xbe823830	-0.25433493
130	0x3d096060	0.033539176
131	0x3d57d62c	0.052694485
132	0xbbdcddef	-0.0067403237
133	0xbdd30475	-0.103035845
134	0x3cf90503	0.030397898
135	0xbe8b4604	-0.27201855
136	0xbe8a031d	-0.269555
137	0xbdfc5fa5	-0.1232293
138	0xbd8539bb	-0.06505152
139	0xbd25c1a7	-0.040467884
140	0xbd7962a7	-0.060885098
141	0x3e04a98f	0.12955306
142	0xbe0cbbd9	-0.13743533
143	0xbda33ef5	-0.079709925
144	0xbddd5286	-0.10806756
145	0xbe86aa54	-0.26301825
146	0x3d24a0ae	0.0401923
147	0xbd34c65f	-0.044134494
148	0xbe05f1f8	-0.13080585
149	0x3e09efa5	0.13470323
150	0xbdf58fb3	-0.11990299
151	0xbd3af67a	-0.045645215
152	0xbe03ffd7	-0.12890564
153	0xbe4696ea	-0.19393507
154	0x3b9e5098	0.004831385
155	0xbe67fbd6	-0.22654662
156	0x3df729d6	0.120685264
157	0xbc800593	-0.015627658
158	0x3e3e9104	0.18610007
159	0x3e8623d2	0.26199204
160	0x3e7d4f40	0.24737263
161	0x3e2021d0	0.15637898
162	0xbdac2d94	-0.08407131
163	0xbdeeb5c4	-0.11655763
164	0xbe63a1fe	-0.22229764
165	0x3d51a4f1	0.05118269
166	0x3d4cdb6e	0.050013952
167	0x3e77b93f	0.2419176
168	0xbc609aa6	-0.013708746
169	0xbcff81fc	-0.031189911
170	0x3c79fa98	0.0152575
171	0x3dc6376b	0.09678539
172	0xbecb3eac	-0.39696252
173	0xbccf47f9	-0.025302874
174	0x3d388260	0.04504621
175	0x3c668a90	0.014071122
176	0xbc2d6cd2	-0.010585027
177	0xbd877084	-0.066132575
178	0xbc231c1a	-0.00995543
179	0xbef3ab06	-0.47591418
180	0xbe9f57ed	-0.3112177
181	0xbcb88745	-0.022525439
182	0xbd26918a	-0.04066614
183	0x3de86771	0.11347855
184	0x3dc84a85	0.097798385
185	0x3ca6b564	0.020350166
186	0xbec4f067	-0.38464662
187	0xbebc43af	-0.36770388
188	0xbdae4d4e	-0.085108384
189	0xbb47a7de	-0.0030465047
190	0xbcd20047	-0.025634898
191	0xbe29ca02	-0.16580966
192	0x3eda54fe	0.4264297
193	0x3dd72c3d	0.10506485
194	0x3db84e46	0.089993045
195	0xbe00d86a	-0.12582555
196	0xbe241c6f	-0.16026472
197	0xbe0919a5	-0.13388689
198	0xbdd49653	-0.103802346
199	0x3ddde76d	0.108351566
200	0x3d866a34	0.065632254
201	0x3d7c664c	0.061620995
202	0xbe426b47	-0.18986236
203	0xbe2fd9fc	-0.17172998
204	0xbe20563b	-0.15657894
205	0xbe229796	-0.15878138
206	0x3c1bed75	0.009517063
207	0xbe1a417b	-0.15064041
208	0xbcc4b46c	-0.024011813
209	0x3d407f9a	0.04699669
210	0xbc4cd397	-0.012501619
211	0x3d966992	0.07344355
212	0xbe3a5d5d	-0.18199678
213	0xbd2946c4	-0.041327253
214	0x3e07e073	0.13269214
215	0x3d2fe66b	0.042944353
216	0xbecf4165	-0.4047958
217	0xbddbdf42	-0.107359424
218	0x3dbe6b7f	0.09297847
219	0x3d655ef8	0.055998772
220	0xbe7ef872	-0.24899462
221	0x3bdef834	0.0068044905
222	0x3e8ecee8	0.27892232
223	0xbe68f7bb	-0.22750752
224	0xbd5ec102	-0.054383285
225	0x3ddea9f3	0.10872259
226	0x3e02f219	0.12787665
227	0x3de77095	0.1130077
228	0xbdc11ad6	-0.09428947
229	0xbdb1344d	-0.08652554
230	0xbe2f2118	-0.17102468
231	0x3df525ce	0.11970101
232	0x3d47ee4a	0.048811235
233	0x3e9302d2	0.2871309
234	0x3e673a2a	0.22580782
235	0xbf021c0c	-0.50824046
236	0xbf2abd06	-0.66694677
237	0xbecc903a	-0.39953786
238	0x3d3164a7	0.04330888
239	0xbc219b86	-0.00986374
240	0xbe009e73	-0.12560444
241	0xbe4e3641	-0.20137884
242	0xbefbcc36	-0.49179238
243	0xbde9fad5	-0.114247955
244	0xbe62439b	-0.22096102
245	0xbe2cbe3a	-0.1686944
246	0xbe12614f	-0.14294933
247	0xbdf92f21	-0.12167192
248	0x3d9705b8	0.07374138
249	0xbd86dc6c	-0.06585011
250	0x3d5cd4d9	0.053913925
251	0x3afab314	0.0019126856
252	0xbe469c5d	-0.19395585
253	0xbd76be84	-0.060240284
254	0xbe6233aa	-0.22090021
255	0xbdd71e7c	-0.10503861

bias f4 [10]
0	0x3db36748	0.08759934
1	0x3da4e381	0.080512054
2	0x3d4d87aa	0.050178207
3	0xbdaf1d01	-0.08550454
4	0xbd78f4bd	-0.060780276
5	0xbcc5395a	-0.024075199
6	0xbbeefc5e	-0.007293268
7	0xbcaa61f6	-0.020798665
8	0xbbeba40c	-0.007191187
9	0x3c91abce	0.017782118
